best_model.pth (torch, 18365 bytes, 2 tensors)

0.weight f4 [2, 2048]
0	0x3cf9c38a	0.030488748
1	0x3d49bf85	0.049254913
2	0x3cda9faf	0.026687471
3	0x3b2c2974	0.0026269825
4	0x3c970ed4	0.018439688
5	0x3dd873c0	0.105689526
6	0x3cc17e67	0.023619844
7	0xbd54956b	-0.05190031
8	0x3d818dc2	0.06325866
9	0x3e6bfa99	0.23044814
10	0xbe272144	-0.16321284
11	0x3d34c6f4	0.04413505
12	0x3dab126d	0.08353124
13	0x3dbec422	0.09314753
14	0xbe26ba4d	-0.16282006
15	0xbda6d6bb	-0.08146425
16	0xbca08530	-0.019594759
17	0x3ddd80b2	0.10815562
18	0xbd6a9ec0	-0.057280302
19	0x3c0052c5	0.007832234
20	0x3d5da182	0.054109104
21	0xbd3fff97	-0.04687461
22	0x3d35609e	0.044281594
23	0xbe53aa30	-0.2067039
24	0xbe445790	-0.19174027
25	0x3e1361c8	0.1439277
26	0x3d9566e6	0.07295017
27	0x3e18116b	0.14850394
28	0x3bec5865	0.007212686
29	0x3dd16813	0.10224929
30	0x3d565908	0.052331
31	0x3e260db2	0.16216162
32	0xbe0440d5	-0.12915356
33	0x3d3e57ec	0.046470568
34	0x3dd58841	0.10426379
35	0xbe00b825	-0.12570246
36	0xbdd4a86e	-0.10383688
37	0xbcaa3d69	-0.020781236
38	0xbcfbbead	-0.03073057
39	0x3d96d242	0.07364322
40	0x3e33bf27	0.17553388
41	0xbe23cc69	-0.15995945
42	0xbdeeb648	-0.11655861
43	0xbd99708e	-0.07492171
44	0x3d2b8f9c	0.041885003
45	0xbd8cdb8b	-0.06877812
46	0xbca99aef	-0.02070376
47	0x3d0514c7	0.032490518
48	0x3dcdd199	0.10049743
49	0xbe480074	-0.19531423
50	0x3d49ce11	0.049268786
51	0xbe248528	-0.1606642
52	0xbd5ee53b	-0.05441783
53	0x3da1a49f	0.07892727
54	0xbe07ca9c	-0.13260883
55	0x3cec9b55	0.028882662
56	0x3d188ea9	0.037245426
57	0x3d68fc77	0.056881394
58	0xbdd21573	-0.10257997
59	0x3e25747d	0.16157718
60	0xbd99e570	-0.07514465
61	0x3cb1844f	0.021669535
62	0x3d487a99	0.048945043
63	0x3cd9bd09	0.026579397
64	0xbd72f1d4	-0.059312657
65	0x3e54c460	0.20778036
66	0xbd8741e9	-0.06604368
67	0xbd3eef54	-0.04661496
68	0xbdee58bd	-0.11638019
69	0xbe10f504	-0.14155966
70	0x3d10bbb3	0.035335254
71	0xbcc9e20c	-0.02464392
72	0x3dbf0bc4	0.09328416
73	0x3e2d7098	0.16937482
74	0x3da0f86d	0.078598835
75	0x3e0cbcbe	0.13743874
76	0xbda2675a	-0.07929869
77	0xbb7c8a05	-0.0038534414
78	0xbd28a4b8	-0.041172713
79	0x3e07622b	0.13221042
80	0x3d341612	0.04396636
81	0xbde3bdce	-0.11120187
82	0xbdb13203	-0.08652117
83	0x3e2f9f65	0.17150648
84	0xbd832ae6	-0.064046666
85	0x3e268f94	0.16265708
86	0xbdad22a7	-0.08453875
87	0xbe14c1a6	-0.14526996
88	0xbe12ca45	-0.14334972
89	0x3d789ea4	0.060698166
90	0x3e18a236	0.14905629
91	0xbcf96784	-0.030444868
92	0xbc8128b8	-0.015766487
93	0x3dea23a2	0.11432578
94	0x3cb9f279	0.022698628
95	0x3d5c7b39	0.05382845
96	0x3e4e3009	0.20135511
97	0x3d1d829b	0.038454633
98	0xbe3db91b	-0.18527643
99	0xbe073c26	-0.13206539
100	0x3e35d3b5	0.17756541
101	0xbcaf3ada	-0.021390367
102	0x3e027369	0.12739338
103	0x3d88e426	0.06684141
104	0x3dc6059f	0.09669041
105	0xbe24fd84	-0.16112334
106	0xbdd14cf8	-0.10219759
107	0xbda72d1a	-0.08162899
108	0xbde2ebde	-0.11080144
109	0x3dbb530c	0.09146699
110	0xbd8f0fb4	-0.06985417
111	0xbe3acd86	-0.18242463
112	0xbd7b271e	-0.061316602
113	0xbb4cad46	-0.0031231209
114	0x3d1cc214	0.038271025
115	0xbe156289	-0.1458837
116	0xbd249955	-0.04018529
117	0x3d1d5898	0.038414568
118	0x3e7fd9e3	0.24985461
119	0x3e4613c2	0.19343475
120	0x3d307b3d	0.04308628
121	0xbd7ffd2c	-0.062497303
122	0xbda3d58a	-0.07999714
123	0xbe00808c	-0.12549037
124	0xbd9fe6d1	-0.078076966
125	0xbd838824	-0.06422451
126	0x3b390f02	0.0028237705
127	0xbd5c3822	-0.05376447
128	0xbe016358	-0.12635553
129	0xbd60752c	-0.054799244
130	0xbcf04b25	-0.029332707
131	0xbd3e875f	-0.04651582
132	0xba542a91	-0.0008093501
133	0xbd5683e3	-0.05237187
134	0x3da3cbca	0.07997854
135	0x3d5308c1	0.05152202
136	0xbdbf6ec5	-0.093472995
137	0xbe30070a	-0.17190185
138	0xbd3ff95e	-0.046868674
139	0xbdb93047	-0.09042411
140	0xbe0ae089	-0.13562216
141	0x3ccdb431	0.025110336
142	0xbd032659	-0.032018993
143	0x3dd44f43	0.103666805
144	0x3d755278	0.0598931
145	0xbd0147b1	-0.03156251
146	0x3d0bd77f	0.03414106
147	0x3ad34583	0.0016118739
148	0x3dca367a	0.09873672
149	0x3c2d73cc	0.01058669
150	0xbd6e0310	-0.05810839
151	0x3dc92c48	0.09822899
152	0xbd6b6270	-0.057466924
153	0x3e3ca172	0.18420961
154	0x3c910dbf	0.01770675
155	0x3d394be2	0.045238383
156	0xbde9dddc	-0.114192694
157	0xbdfe5db7	-0.124202184
158	0xbdbb85cc	-0.09156379
159	0xbe197b64	-0.14988476
160	0x3e00d810	0.12582421
161	0xbe44de71	-0.1922548
162	0x3e07973a	0.13241282
163	0xba8f7449	-0.001094469
164	0x3c1fb00d	0.009746564
165	0x3e246482	0.16053966
166	0x3da3e089	0.08001811
167	0xbdd342ac	-0.10315451
168	0x3d945d16	0.07244317
169	0x3d6391a8	0.05555883
170	0x3e08e5d6	0.13368925
171	0xbdddaff0	-0.10824573
172	0xbe3668a7	-0.17813359
173	0x3cfc5293	0.030801093
174	0x3df71405	0.12064365
175	0xbd223378	-0.039599866
176	0x3bef0150	0.0072938576
177	0x3b9e1684	0.0048244614
178	0xbdcca587	-0.09992509
179	0x3a68f946	0.00088872423
180	0x3dbdc45e	0.0926597
181	0xbc5f2327	-0.013619221
182	0x3de71474	0.11283198
183	0xbd8fda45	-0.070240535
184	0xbd0d45d3	-0.034490418
185	0x3cbb29b3	0.022847032
186	0xbe356cbd	-0.17717262
187	0x3e0a9f32	0.1353729
188	0xbc11510e	-0.008869423
189	0x3e169e2a	0.14708772
190	0xbe34a1f3	-0.17639904
191	0xbe39a7d4	-0.18130428
192	0xbe25c0a5	-0.1618677
193	0xbdfc69f5	-0.12324897
194	0xbe15204c	-0.14563102
195	0xbd5396dd	-0.051657546
196	0xbde1cc37	-0.11025279
197	0xbe06dba8	-0.1316973
198	0xbd9c5fd3	-0.076354645
199	0x3dd3ff6d	0.10351453
200	0x3dbfa887	0.09358316
201	0x3d1058c0	0.03524089
202	0xbe414188	-0.18872654
203	0xbdb01078	-0.08596891
204	0xbcc0e67e	-0.023547407
205	0x3d9b90aa	0.07595952
206	0x3dbf5c3f	0.093437664
207	0x3d52ed02	0.05149556
208	0x3c4111a5	0.011783992
209	0xbddb30db	-0.10702678
210	0xbe115e75	-0.14196189
211	0x3d0dcafb	0.034617405
212	0xbdcf297a	-0.10115333
213	0x3df0653b	0.11738058
214	0x3d08bae0	0.033381343
215	0x3e01e385	0.12684448
216	0x3db2699b	0.08711549
217	0x3de07f92	0.10961832
218	0xbc698b04	-0.014254335
219	0x3d665d99	0.056241605
220	0x3d96525c	0.073399276
221	0xbd0afe8f	-0.033934172
222	0x3ddd5f33	0.108091734
223	0xbdc92a02	-0.098224655
224	0x3e5379ed	0.2065198
225	0x3e3074bf	0.17232035
226	0x3d4d546b	0.050129335
227	0xbe26e39d	-0.16297765
228	0xbd2d2088	-0.042267352
229	0xbdc20ad8	-0.094747245
230	0x3a11c7a4	0.000556106
231	0x3d953e5b	0.07287284
232	0x3deaee9c	0.114712924
233	0xbc8f621e	-0.01750284
234	0xbdb30822	-0.087417856
235	0x3cf0c315	0.029389897
236	0x3c4c4ab4	0.0124689825
237	0x3db64d18	0.08901423
238	0x3e455b64	0.19273144
239	0xbda3aaf9	-0.07991595
240	0xbe833693	-0.25627574
241	0x3d5d2428	0.05398956
242	0x3ca4cc83	0.02011705
243	0xbc5a428f	-0.013321533
244	0x3e267c55	0.16258366
245	0xbd13d5e0	-0.03609264
246	0xbc6326b6	-0.01386421
247	0x3ca7ce2e	0.020484056
248	0x3e25fb61	0.16209175
249	0x3e0bff2e	0.13671562
250	0xbcc45314	-0.023965396
251	0x3d8524c1	0.06501151
252	0x3cb0bf8d	0.021575714
253	0xbd949514	-0.07254997
254	0xbd006c62	-0.031353362
255	0xbca67ddd	-0.020323688

0.bias f4 [2]
0	0xbc97d59e	-0.018534478
1	0x3d779e30	0.060453594
